model.pt (torch, 2316 bytes, 2 tensors)

weight f4 [2, 10]
-0.005053698 0.14975737 0.14946719 0.14317355 -0.2340861 -0.10547878 -0.30837384 0.13341142
0.25589073 0.23638088 -0.12521927 0.09739181 -0.25476998 -0.1374649 -0.22037038 0.06713921
0.24264337 -0.06283964 0.06887962 0.1635925
00000000: 7e99 a5bb ff59 193e ed0d 193e 169c 123e
00000010: 44b4 6fbe 4205 d8bd 2de3 9dbe 019d 083e
00000020: 1c04 833e d40d 723e 7b39 00be 5b75 c73d
00000030: 3671 82be 99c3 0cbe c6a8 61be 4880 893d
00000040: 8177 783e 12b2 80bd c210 8d3d cb84 273e

bias f4 [2]
-0.008833229 0.07531262
00000000: 3fb9 10bc 813d 9a3d
